md_corrector.pt (torch, 5975 bytes, 5 tensors)

weight f4 [16, 2, 11]
00000000: e0a5 66bd fa16 dc3d bdcc 8dbd c20c 443e
00000010: 458e 27be a37a db3d 78ef e13d 4a5f 8c3d
00000020: 9593 913d 02c1 f4bd da1f 34bd 3ef3 22bc
00000030: d2e2 37be 6d06 723d b5cb afbd 04d0 a8bc
00000040: ce1f 2ebe a785 31bd 63b0 dfbd b8dd 253e
00000050: d886 4d3e 0cc4 4cbc 7193 abbd 4deb abbd
00000060: 31f4 42bd 96ab 253d cd0d 4abd 3580 923c
00000070: 80da ed3d 3411 a4bd 0b9b 413e 97dc 933c
00000080: f7ea 093b 1a45 593d 2451 9ebc 0836 253e
00000090: b138 003e c62b 4dbc 75b2 ab3d 477e 093e
000000a0: 0eba 203d 8656 8d3b 9227 adbd 51b5 5dbc
000000b0: 19b7 47be d57d debc d8df 553d ffa1 883d
000000c0: a1d8 d2bd 51e0 cdbb 83d9 533c be10 1a3e
000000d0: 740c 373e 3b16 2dbd abb1 0d3e ca2b 273e
000000e0: b85b 023e fa95 8fbc 07be b33c 5ed7 55be
000000f0: 2892 543d 65b0 30be c5e4 d7bd d25e ed3d
00000100: 9dbe d33d 54e4 ea3c 82be 1bbe 50be 43be
00000110: 7b03 e03d fca2 4bbe 27c0 8e3d a615 41bd
00000120: d97f 103e 1316 2f3e e104 8dbd 65eb 9bbd
00000130: 322d 36be d3b5 593e d0a1 47bd c860 55be
00000140: 9fa3 e8bd 46da 5a3e 843d 4dbe f9bc 493d
00000150: 66f8 113e 1fb7 833c 8339 563e 1b27 233e
00000160: aa28 fa3d e9c3 563d 9883 3cbe a3e7 673a
00000170: c57d ed3c b706 4b3e bbab 46be b355 283e
00000180: 90e2 113e 3794 7dbd d261 173d 5a90 1d3d
00000190: 6976 42be 65ff 243e 7531 1cbd c6f2 17be
000001a0: 89e5 d1bd 0193 193e 92a8 3c3e 1c76 383e
000001b0: ab19 123e a96e 03be 451d 373e f4c9 a83d
000001c0: 0128 673d bf84 f43c 66e9 e6bc 4c71 a6bc
000001d0: 855a 143e 06bf 87bd 822f c13c 6489 43be
000001e0: 88f0 103e 0a49 913d 095b 6e3d 308b 363c
000001f0: bcaa 833d 4857 8fbc b3a6 a3bd 701b 2abe
00000200: 1d15 ec3c 07b9 9a3d de53 333e 4da6 20bd
00000210: ea46 0abe 5338 293e f717 f4bb 34a9 083c
00000220: 89d0 28be 85d8 f6bd 51cb fa3d 5471 66bd
00000230: 6588 86bd 4df3 f8bd 3241 073d 830e bcbd
00000240: c5ab 74bd a7dc 333e dc46 5fbd dd22 2fbe
00000250: 3311 f7bd 5d4f d03d de53 013d 1621 103e
00000260: 8d4e 14bd 7a47 e3bd 501f d9bd 4514 d7bd
00000270: 03be 523e 7586 64bd 6b61 50be 8da8 003c
00000280: b0c9 3dbd 3af1 a13b 26d1 183c 1a80 573e
00000290: de40 0c3d 1aee b0bd 8acf 1f3c 2885 34be
000002a0: 3049 363d 2c85 0ebd 2361 5c3e 368f 933d
000002b0: 4a00 583e d312 993c 35c9 823c bf0b 83bd
000002c0: fe11 81bd a7d8 e0bd 0fb4 babb a050 29be
000002d0: 3340 f5bc 9f4b 4fbe 643c 76bd 54de 22be
000002e0: 5765 0ebe dfb3 5abd e204 573e 02c2 f43d
000002f0: 6072 c13d 68f5 ac3d 1db2 09be 58f5 103e
00000300: e608 8cbc f05a aebd 12c7 43be 80e3 c5bc
00000310: c711 febc 1162 523e 5ca4 683d 1036 9bbd
00000320: 72d0 0cbe 49cd 24be 9acf 1f3e f91a 413e
00000330: b8d7 efbd a8a0 cb3d 4f22 a33c ce97 2d3d
00000340: d879 1c3e 8516 043e 3074 62bd 2b1c 473e
00000350: 5465 323e f953 aabd 2d16 243e c2de c03b
00000360: 5d4b 183d 88d0 513e 09a9 f73d 313c 2e3e
00000370: c957 323d 659f 0d3e 94d8 04be 44d9 18be
00000380: a901 10be 5b5c bcbc d024 593d 779e 80bc
00000390: c562 33be 0cf9 67bd 868e 29bd 9ac8 503c
000003a0: 7a22 3fbe 01b0 763d a7fa 2c3d c54a 233e
000003b0: 84d2 53be b36a 13be 15d9 37be 1d30 b2bd
000003c0: cb07 333e 429c 033e e0cc 053d 382c cf3d
000003d0: 6a01 01be 0627 0cbe b9fe c53d a490 f3bd
000003e0: 5e56 523e e25a b43d 599c 9a3d dee7 56be
000003f0: 255f 343d f29c fb3d 3676 55be 0f8a 353e
-0.056310534 0.1074657 -0.06923816 0.19145492 -0.16362865 0.107167505 0.11032003 0.068541124
0.07108227 -0.11950876 -0.04397569 -0.009945689 -0.17957619 0.05908816 -0.08583776 -0.020607002
-0.1700432 -0.04334035 -0.10922315 0.1619786 0.2007097 -0.012497913 -0.083777316 -0.083944894
-0.04759616 0.04044684 -0.049329568 0.0178834 0.11613941 -0.08011094 0.189068 0.018049521
0.002104459 0.053044416 -0.0193258 0.16133893 0.12521626 -0.012522643 0.08383647 0.13427077
0.039239936 0.004313293 -0.08454813 -0.013531999 -0.1950344 -0.02715961 0.052215427 0.06671523
-0.10295225 -0.006282844 0.012930277 0.15045449 0.17875844 -0.04225753 0.13837306 0.16325298
0.127303 -0.01752757 0.021941198 -0.20882937 0.051897198 -0.17254789 -0.10541681 0.11590351
0.10339091 0.028673328 -0.15209392 -0.19115567 0.10938164 -0.19886392 0.06970244 -0.047139786
0.1411127 0.17098264 -0.06885696 -0.07613257 -0.17790678 0.21260767 -0.0487383 -0.208377
-0.11359333 0.21372327 -0.20042998 0.049252484 0.14254913 0.01607853 0.20920376 0.15932886
0.12214787 0.05243293 -0.18409574 0.0008846467 0.028990636 0.1982678 -0.19401447 0.16438942
0.14246583 -0.061908927 0.036958523 0.038467743 -0.18990482 0.1611305 -0.038133103 -0.14838704
-0.102488585 0.14997484 0.1842368 0.18013805 0.14267604 -0.12835182 0.17882259 0.082416445
0.056434635 0.029848455 -0.028187465 -0.020317696 0.14487655 -0.06628232 0.023582224 -0.19095379
0.14154255 0.07094009 0.058192287 0.011141583 0.064290494 -0.017497674 -0.0799078 -0.16612029
0.028818661 0.075548224 0.17512462 -0.039221097 -0.13503614 0.16525392 -0.007449146 0.008341122
-0.164858 -0.120530166 0.12245811 -0.056260422 -0.06568984 -0.12155781 0.03302116 -0.091824554
-0.059734125 0.17564641 -0.054510936 -0.17103143 -0.12063827 0.10171387 0.031574123 0.14075121
-0.036207724 -0.110976174 -0.106016755 -0.10501913 0.20580296 -0.05579229 -0.20349662 0.007852686
-0.046334922 0.0049420865 0.009327209 0.2104496 0.03424155 -0.08639164 0.009754071 -0.1762892
0.04450339 -0.03479497 0.2152143 0.0720505 0.2109386 0.018685734 0.015965084 -0.06398725
-0.0630226 -0.10978823 -0.005697734 -0.16534662 -0.02993784 -0.20243691 -0.060116187 -0.15905124
-0.13905846 -0.053394195 0.20997956 0.119510666 0.094456434 0.08445245 -0.13446851 0.14156091
-0.017094087 -0.08513439 -0.19118908 -0.024156332 -0.031014336 0.20545222 0.05679737 -0.07578671
-0.1375139 -0.16093935 0.15606537 0.18857946 -0.11711067 0.09942752 0.01991382 0.0423811
0.15280855 0.12899216 -0.055286586 0.19444339 0.17421466 -0.08316798 0.16024084 0.00588593
0.037181247 0.20489705 0.12092788 0.17015149 0.04354075 0.13830335 -0.12973243 -0.1492663
-0.14063133 -0.022993257 0.053013623 -0.015700562 -0.17518146 -0.056633994 -0.041395687 0.01274314
-0.18665496 0.060226444 0.04223123 0.15946491 -0.20685774 -0.14396171 -0.17953904 -0.08700583
0.17483442 0.12852576 0.032666087 0.10115856 -0.12598196 -0.13686761 0.09667725 -0.118928224
0.20540759 0.08806397 0.07549352 -0.20986888 0.04403605 0.12285794 -0.20845875 0.17728446

bias f4 [16]
00000000: abf7 90bd 1499 19bb 054a 7ebd cc39 be3d
00000010: 300b 873d 5422 c53d f907 28be 3ef4 403e
00000020: 028d aa3d d17b 213e 0727 f4bc a610 1ebe
00000030: 4abe 2a3e 9767 043e c59c 09be 6ebf 063e
-0.07078489 -0.002343719 -0.06208231 0.09288368 0.06593931 0.09625688 -0.16409291 0.18843171
0.08327676 0.15769888 -0.029803766 -0.15436038 0.16674152 0.12930141 -0.13438709 0.13158962

weight f4 [16, 2, 7]
00000000: fe09 5cbe d316 903c fcef 1f3e 0516 65be
00000010: 3fc4 84be 88e5 29bd ece2 fd3b d962 2d3e
00000020: da45 47be 3a76 843e a2d0 edbd d49b 003e
00000030: 8f92 7cbe ff92 79be e7a8 983d 8ff2 443e
00000040: 57bd 68be 7a17 70be 20d3 f73d 694f 17bd
00000050: a8b4 e63d efdd 253e 5b4d a1bd d50f 0c3e
00000060: d1fe 123e 5d8d 89be c2b1 3c3c 8bbd bdbd
00000070: 8934 44be 4e32 58be 54a5 493e 613b 3ebe
00000080: 117c 0fbe f814 4a3e 24b8 5f3e f4a9 b8bd
00000090: 977c c83d 1300 0e3e c7a8 0f3c bf96 8b3d
000000a0: 983c 1f3c 55af 5dbe 61ff 2d3e 0c0f 6dbe
000000b0: c790 09be 4ebd 4abe 2efb 71be 6fc0 7b3e
000000c0: 1e96 8dbd 823f 0a3e 796a 763e cad7 2bbe
000000d0: 40ab 2f3e a7b8 db3d 53e8 643d 907c 05be
000000e0: 8553 58be 092f a43d fe92 56be 784b c73d
000000f0: 5fb1 c43d bb20 1dbe 174f 133e 678f d83d
00000100: 3eae abbd 0083 0d3e 2047 e23d d18b 023e
00000110: 6bc5 7a3e b326 0ebe e5e8 34be 2a2f 913d
00000120: d5a8 2cbd a82f fc3d d7dd 7dbe 6d2a 003e
00000130: 4320 8e3d af24 6a3e 7a2d 54be 7047 1ebe
00000140: bd4d 3b3e 5a0d d6bb 02f6 003d 8778 5abd
00000150: 72b3 883c c7ac 8f3d 41af 0a3e ffc8 3a3e
00000160: 1125 f2bd c67c 7b3e b24a 45bd 4617 683e
00000170: 2df1 85be 02d5 0c3e e053 883e a286 e3bd
00000180: 8cdc 84be 7547 41be b246 82bd 613e 693e
00000190: ed78 593e 389e 5ebe f9b1 153d e202 313e
000001a0: 0a3d 7fbe 2159 573e 1313 81be 270f 89be
000001b0: 9585 933d 44ba 87be 2556 41be 3888 3bbe
000001c0: a48b 1fbe 17a6 32be 3872 2fbd 24b8 80be
000001d0: 745e 623e 8e73 05be cfba 87bd 0ec6 f8bd
000001e0: ccb6 84be 64f1 583d 727d b8bc b5e2 82be
000001f0: bdce 383a 14bf 103e dd2f b53c 79d6 f7bd
00000200: 6dcc 37bd ee3f 4bbe 81c4 82bc 7508 47be
00000210: 2533 263e 9e04 76be 8824 02be cb98 82be
00000220: b783 653d c483 19be b13d 56be 12f5 583d
00000230: 3c9f 263e f663 b13d 16f5 22bd c6b8 07bd
00000240: feed 753d 1184 86be 63c5 e1bd 6477 60be
00000250: c1e0 78be d5e3 01be 80c5 6e3e 1a7a c1bd
00000260: 25d8 5d3d fdcc 0d3e 707c 4cbe dfeb 24bd
00000270: 2f1f 213d 0b00 5dbe 55c5 3e3e 73c7 7f3e
00000280: dc61 663e c4c3 2a3d 18c4 de3d c205 4fbe
00000290: f7e4 e7bc ea6c 0b3e e721 013c 06c2 6b3e
000002a0: 6b51 78bd de7b 5a3e cdd2 1ebd ce7d 4ebe
000002b0: 1f4b 293e 1cd0 5a3e a498 5dbe b9e5 32be
000002c0: 270e 96bd 7c4d 013e b735 fcbd d597 cb3d
000002d0: 187f 563d a11f 303d 3bf5 1cbe a121 eb3d
000002e0: cf30 173e 127a f53d 9df2 bdbd 3869 fcbd
000002f0: dd21 d6bd cd38 8d3d ff20 2fbe 2e8a 613e
00000300: 3d36 183e 0617 103e 6cc7 68bd ecf3 1fbd
00000310: 559f 18be 1d39 9c3d e260 223e 32d4 75be
00000320: f0d2 833e 1ed3 b93c 818b a73c fc6a f2bd
00000330: 72ac d23d c0a6 75be e94f 62be 38c8 ea3b
00000340: f43e 1e3e 1d28 013e 0150 c4bd f1f8 323e
00000350: da48 5d3b abaa c2bd 0295 73be 12c1 07bc
00000360: 5d76 36bd 0658 ad3d 9f66 6ebe 3718 4d3e
00000370: a261 a4bc 069f 5a3e ab2a 58bd 88d3 82bd
-0.21488187 0.017589008 0.1561889 -0.22371681 -0.25930974 -0.041478664 0.0077479985 0.16932239
-0.1946024 0.2587145 -0.11612059 0.12559444 -0.24665283 -0.24372481 0.074540906 0.19233154
-0.22728477 -0.23446456 0.12100816 -0.036940966 0.11264926 0.16197942 -0.078760825 0.13677914
0.14355017 -0.26865664 0.01151699 -0.09264668 -0.19160666 -0.2111294 0.19691974 -0.18577339
-0.14012171 0.19734561 0.21847588 -0.09016791 0.097893886 0.13867216 0.008768267 0.06815862
0.0097190365 -0.21648915 0.1699195 -0.23150271 -0.13434134 -0.19798777 -0.23630974 0.24585126
-0.06913398 0.13500789 0.24064054 -0.16781536 0.1715517 0.10728579 0.055885624 -0.13035798
-0.2112561 0.08016784 -0.2095451 0.097311914 0.09604143 -0.15344517 0.14385639 0.10574227
-0.083828434 0.13819504 0.11048722 0.12748648 0.24489371 -0.1388195 -0.17666967 0.07089074
-0.0421532 0.12313777 -0.24791656 0.12516184 0.06939747 0.22865556 -0.20720473 -0.15456939
0.18291374 -0.0065323533 0.03148461 -0.0533376 0.016687129 0.070153765 0.13543417 0.18240736
-0.11823476 0.24559316 -0.048166938 0.22665128 -0.26160565 0.13753131 0.26626492 -0.111096635
-0.25949514 -0.18874915 -0.0636114 0.22777702 0.21237536 -0.21740043 0.03654668 0.17286256
-0.24925628 0.21030094 -0.25209865 -0.26769373 0.07203213 -0.26509297 -0.18880518 -0.18313682
-0.15580612 -0.17446171 -0.042833537 -0.25140488 0.22106344 -0.13032362 -0.06627428 -0.12147151
-0.25920713 0.052964583 -0.022520754 -0.2556359 0.00070498494 0.1413539 0.02211755 -0.12101454
-0.04487269 -0.19848606 -0.015962841 -0.1943682 0.16230448 -0.24025199 -0.12709248 -0.25507197
0.056033816 -0.14991671 -0.20921971 0.052968092 0.1627168 0.08661644 -0.039784513 -0.033135198
0.06004142 -0.26272634 -0.11023977 -0.21920544 -0.24304487 -0.12684567 0.23317528 -0.09447117
0.05416121 0.13847728 -0.19969344 -0.040264007 0.03933638 -0.21582048 0.18629964 0.24978428
0.22498268 0.041690603 0.10877246 -0.2021704 -0.028307421 0.13615766 0.007881618 0.23023233
-0.06062452 0.21336314 -0.038775254 -0.20165178 0.16532563 0.2136845 -0.21640259 -0.17470445
-0.07326918 0.12627214 -0.12314933 0.09941069 0.0523673 0.042998914 -0.15327923 0.114810236
0.14764713 0.11986174 -0.092747904 -0.123247564 -0.10455678 0.068955995 -0.17102431 0.22025368
0.1486444 0.14071283 -0.05683081 -0.03905098 -0.1490453 0.07628081 0.1585727 -0.24006727
0.2574687 0.022683676 0.020452263 -0.11836812 0.102867976 -0.23989391 -0.22100796 0.007164981
0.15453702 0.12612958 -0.09585572 0.17477776 0.0033765347 -0.095052086 -0.2378731 -0.008285778
-0.044546474 0.08464055 -0.23281334 0.20028768 -0.020066086 0.21349725 -0.052775066 -0.06388003

bias f4 [16]
00000000: 1e75 1a3e efbc 29be 8461 223e ff8b f33d
00000010: 653d 573c 12db d63c a4f0 013e 7e52 73be
00000020: 22dc 163e c2a2 fcbd 81d6 043e 01b0 6bbd
00000030: 6070 87bd 907f 04bd 790f 1b3c c8a8 3cbd
0.15083739 -0.16575979 0.15857512 0.118919365 0.013137196 0.026227508 0.12689453 -0.23761937
0.14732412 -0.12335731 0.12972452 -0.057540897 -0.06613231 -0.032348216 0.009464138 -0.0460594

weight f4 [1, 32, 5]
00000000: fb9a 533d 1088 6fbc 7f2f 82bd 273a e9bc
00000010: 0e63 abbc befb fdba e046 7b3d 9793 01bd
00000020: cabd b4bc 8c15 36bc f51f 563d d9e3 743d
00000030: b4bd e53b 1c0a 053d c43a 253c f925 49bd
00000040: f3ed 083d f5f8 50bd 575b bb3c b649 a03d
00000050: cdb2 533d c0de 573d d8ad 88bd a85e 5d3d
00000060: 01f2 a73d edb5 023d 7f70 cb3c dc78 923d
00000070: c6c4 e53c 9d67 f3bb 6076 883c 3ee1 d6bc
00000080: f404 803d de8d 013d 0b93 28bd bab8 253d
00000090: 603b 7b3d b074 693c 5a5e 05bd 526c 113d
000000a0: 542a a63d b404 1bbd 7c79 33bd ed78 8dbd
000000b0: 986e 193d 5695 4cbd 8c0d 8dbd cbac 8abd
000000c0: a547 473d cd80 8f3d 2481 fdbc 92f9 94bd
000000d0: 9e75 a2bd 0e57 363c 6118 81bd b380 81bd
000000e0: 711c fdbc b4f9 343d 3df3 2abd 9c10 84bd
000000f0: 2ae8 24bd 32be 90bc 37d9 3ebd b1d3 683d
00000100: f12e 8fbd d98b 96bc c4e3 eabc 35dd c1bc
00000110: fa21 b03c f3f2 423c f190 60bd c74f 8fbc
00000120: 9029 15bd d88a 3b3d 0906 e0bc a1fe dc3c
00000130: 16d2 903d 33e9 b63a 1a2d 663c fad8 933d
00000140: b421 b23c 2d63 063d b6c8 7fbd a842 6a3d
00000150: 23eb 83bd 6506 8c3d bec1 5b3d fc60 6ebd
00000160: fa60 9abd 26b9 e63b ee01 0c3d 428d 62bd
00000170: fde6 163d 1858 2fbd fbc9 2dbd 402e 1ebd
00000180: 5712 47bd 9d0f 3e3d d101 6bbd f0b6 6dbd
00000190: 7f12 1ebd e5a2 ce3c 817c 203d 431e 4a3d
000001a0: f10f 9b3d fa12 8cbc 4781 1e3d 37ea edbc
000001b0: b098 28bc 20e2 9bbd b239 08bd 1473 b1bc
000001c0: b100 1b3d cc4b 5e3d d5f9 1fbd 62d2 2cbc
000001d0: 022c 28bd 29af 78bd e2eb 483d dd67 09bd
000001e0: 2051 87bd 4786 16bc ef03 943d 610e 27bd
000001f0: 9fa5 453d 7bf2 61bd de0e 843d fb7a b9bc
00000200: 5392 8cbd 79f9 7cbd 79ca 98bd a445 29bd
00000210: e2ed 4e3d aadd 07bd f6f2 c9bc d324 4fbb
00000220: 5030 353d 6b41 8dbb fa1a 84bd 65c9 5ebd
00000230: 8de8 1fbd f869 963b 8ae9 9abd 1683 64bc
00000240: 3811 343d df35 203d e663 91bd c118 e23b
00000250: 4d85 7a3c dca8 a73d 693a 663d a98a 3f3c
00000260: 915f a0bc 38d0 333d a82b 9ebc cdfb 00bc
00000270: 4650 a63d b704 8ebd ccff 4abd 4e5d 6cbd
0.051661473 -0.014619842 -0.063567154 -0.028470112 -0.020921256 -0.0019377393 0.06134689 -0.031634893
-0.022063155 -0.011113536 0.05227657 0.059787605 0.0070111398 0.032480344 0.010084812 -0.04910848
0.03343005 -0.051018674 0.022870703 0.07826559 0.05168419 0.052702665 -0.06673783 0.05404535
0.082004555 0.03191178 0.024833916 0.07151958 0.02804793 -0.007428123 0.016658008 -0.02623045
0.06250945 0.031629436 -0.041155856 0.040459372 0.06133592 0.014249012 -0.032560684 0.035503693
0.08113542 -0.037846282 -0.04381703 -0.069078304 0.037458986 -0.049947105 -0.068873495 -0.06771239
0.04865231 0.07006989 -0.030945368 -0.07274164 -0.0793259 0.011129154 -0.06303478 -0.063233756
-0.030897351 0.044183448 -0.041735876 -0.064484805 -0.04026047 -0.017668817 -0.04659387 0.05684251
-0.06991375 -0.018377231 -0.02867306 -0.02366505 0.021500576 0.011898744 -0.054825727 -0.017494095
-0.03641659 0.04578671 -0.027346628 0.026976885 0.07071321 0.0013954997 0.014048839 0.07219119
0.021744587 0.032809425 -0.062447272 0.057192475 -0.06441333 0.06837157 0.053651564 -0.05819796
-0.07538028 0.0070411144 0.034181528 -0.055310495 0.03684138 -0.042808622 -0.04242895 -0.038618326
-0.048601475 0.04640161 -0.05737478 -0.05803579 -0.038591858 0.025224159 0.039181236 0.049345266
0.075714 -0.017098892 0.038697507 -0.029042346 -0.01029031 -0.07611489 -0.033258148 -0.021661319
0.037842456 0.054271504 -0.039056618 -0.010548206 -0.041057594 -0.06071392 0.04905308 -0.033546317
-0.0660727 -0.009187288 0.07227313 -0.040785197 0.04825365 -0.055162888 0.06448148 -0.02264165
-0.06863847 -0.061761353 -0.074604936 -0.04132618 0.05051983 -0.03317038 -0.024651986 -0.0031607642
0.044235528 -0.004310777 -0.06450458 -0.054391284 -0.039040137 0.004590269 -0.07564075 -0.013947269
0.043961734 0.039113875 -0.07099132 0.0068999236 0.01529057 0.08186504 0.056208048 0.011690774
-0.01957682 0.043899745 -0.019307926 -0.007872534 0.0812078 -0.06934493 -0.049560353 -0.05770617
