raw_indeep_corrector/md_corrector.pt (torch, 5975 bytes, 5 tensors)

weight f4 [16, 2, 11]
0.16232713 0.17628492 -0.05061366 0.19518512 -0.047386065 0.042331 -0.1044939 0.124520235
0.18726274 -0.15709326 0.1846291 0.04116204 0.15877798 0.030165868 0.10408715 -0.028832862
0.16564016 0.03281243 -0.09823061 0.055616546 -0.09696606 -0.023746697 -0.08738484 0.14064343
-0.16907343 -0.09906754 -0.06099151 -0.12899756 0.019307695 -0.2113903 0.19173886 -0.18191159
0.16379273 0.036715563 -0.06798147 0.13301739 0.034460474 0.17354548 0.024564624 -0.06596851
0.0585798 -0.05655691 0.09096338 0.19158117 0.12309421 -0.09334191 0.12294453 0.038031098
0.10813509 -0.1301042 -0.21120657 -0.08251881 -0.16367064 0.17478268 0.061257444 0.086939685
0.066083215 -0.005019028 0.16550076 -0.1528129 0.0120573025 -0.14676604 0.0643942 -0.07474382
0.06396666 -0.045757055 0.17721745 -0.1259739 -0.12676693 -0.12677039 0.19215925 0.071453
0.20555492 -0.17554805 -0.2110697 -0.16640365 -0.14302126 0.085030206 0.07500916 0.17580695
-0.11142491 -0.14667971 0.111765645 -0.08750646 0.12804887 -0.05191941 0.120635465 -0.16696878
-0.1069228 0.065669276 0.04573957 -0.05368386 0.12775959 0.14561479 -0.15392882 -0.113140725
0.19589701 -0.07126717 -0.07491012 -0.20757325 -0.123380095 0.051967565 -0.029414715 -0.15605691
0.0037012182 -0.14690445 -0.18217628 -0.118679 -0.18787326 -0.13702539 0.21378809 0.040938556
0.0663767 -0.19816573 -0.13933739 -0.07028494 0.03400957 -0.18693249 -0.09119311 -0.12696718
0.0012555614 -0.08061953 -0.016069937 -0.14575621 -0.14762461 -0.1256684 -0.07426076 -0.16956073
0.17750955 -0.0435835 0.18216303 0.0651419 -0.17988062 0.14819454 -0.058010675 -0.08106911
-0.17630985 -0.21129026 0.061667286 -0.04589944 0.083668485 -0.17430188 0.15894717 -0.15776308
-0.03809023 0.04325255 0.10882219 0.17080416 0.19295125 -0.17032614 0.052367862 -0.09297654
-0.024618492 -0.16083932 0.19498183 -0.15569165 0.11473453 0.0757122 0.07007684 -0.11446054
0.19458939 0.04763556 0.028211417 -0.18709445 0.09028624 -0.03324019 -0.09893452 0.18184982
0.046237655 -0.11919384 -0.10917359 -0.0114887245 0.11780318 -0.055732172 -0.12289849 -0.07427096
-0.16003616 0.07526198 0.16425136 -0.201495 0.048741087 0.109367505 0.037895102 -0.07668364
0.11051241 0.11128347 0.07895997 -0.03620036 -0.05521141 0.024052517 -0.036372565 -0.06234188
0.13757151 0.18443151 -0.019864207 -0.046513263 0.004373381 -0.011489402 0.05016477 0.05865714
-0.19471104 -0.07975244 0.17843847 0.0819264 -0.011718035 -0.12964045 -0.1315397 -0.19208398
-0.07059929 0.07318125 0.13715798 0.09970871 -0.18726026 -0.12702133 -0.032363027 0.20749031
0.032070357 -0.05400943 0.08940267 -0.0800168 -0.13753566 0.15608098 -0.09647066 -0.0422605
-0.21162012 0.14315341 0.16198958 0.07816215 -0.14819333 -0.20995937 -0.17269693 0.15770856
0.10109753 0.17815825 0.11041018 0.052721538 -0.0033756392 -0.16335553 -0.18392356 -0.20065871
0.08600645 -0.1059297 -0.04341557 -0.123206496 -0.039360292 -0.15057088 -0.13982303 0.07020476
-0.0638807 0.13110018 -0.06891011 -0.15690883 -0.03812748 -0.102023326 -0.06390018 -0.20163994
00000000: 1539 263e 0984 343e 4550 4fbd 9cde 473e
00000010: e417 42bd 4563 2d3d e600 d6bd 7704 ff3d
00000020: cec1 3f3e 0edd 20be 690f 3d3e 8799 283d
00000030: b296 223e 691e f73c a52b d53d e532 ecbc
00000040: 939d 293e 5466 063d 212d c9bd 2dce 633d
00000050: 2496 c6bd 6f88 c2bc d3f6 b2bd d504 103e
00000060: 9621 2dbe ece3 cabd 3cd2 79bd f017 04be
00000070: 2c2b 9e3c b376 58be 3157 443e 0847 3abe
00000080: 48b9 273e 0f63 163d de39 8bbd b635 083e
00000090: 6d26 0d3d e8b5 313e c03b c93c 801a 87bd
000000a0: 5ff1 6f3d 38a8 67bd 024b ba3d db2d 443e
000000b0: d118 fc3d 0b2a bfbd 57ca fb3d 7fc6 1b3d
000000c0: ee75 dd3d 093a 05be 8946 58be 9fff a8bd
000000d0: 4799 27be 3bfa 323e 16e9 7a3d 6f0d b23d
000000e0: a356 873d a976 a4bb 0879 293e fc7a 1cbe
000000f0: fe8b 453c d649 16be 1be1 833d 4a13 99bd
00000100: f400 833d c06b 3bbd 7e78 353e 4dff 00be
00000110: 31cf 01be 19d0 01be 65c5 443e f355 923d
00000120: fd7c 523e dec2 33be a822 58be b865 2abe
00000130: 2a74 12be 5124 ae3d 679e 993d bd06 343e
00000140: be32 e4bd 3533 16be 63e5 e43d 9636 b3bd
00000150: 3e1f 033e 72a9 54bd ba0f f73d ddf9 2abe
00000160: 57fa dabd 9d7d 863d 6a59 3b3d 9be3 5bbd
00000170: 69d3 023e 0b1c 153e 849f 1dbe 53b6 e7bd
00000180: 3a99 483e 86f4 91bd 7a6a 99bd 158e 54be
00000190: b4ae fcbd f1db 543d 21f7 f0bc 62cd 1fbe
000001a0: 2390 723b 1f6e 16be 6b8c 3abe fa0d f3bd
000001b0: d961 40be 6250 0cbe 44eb 5a3e 30af 273d
000001c0: 82f0 873d f5eb 4abe 76ae 0ebe 8df1 8fbd
000001d0: 9e4d 0b3d 3b6b 3fbe 74c3 babd af03 02be
000001e0: a691 a43a da1b a5bd 1aa5 83bc 1e41 15be
000001f0: e82a 17be 38af 00be 0616 98bd 54a1 2dbe
00000200: 10c5 353e 9d84 32bd f288 3a3e 1e69 853d
00000210: a032 38be 4fc0 173e 9a9c 6dbd 9007 a6bd
00000220: 928a 34be 795c 58be d696 7c3d 0d01 3cbd
00000230: 625a ab3d 317c 32be 0cc3 223e a58c 21be
00000240: 8004 1cbd 9629 313d 2bde de3d 49e7 2e3e
00000250: 0395 453e fa69 2ebe af7f 563d 7c6a bebd
00000260: b8ac c9bc 10b3 24be 51a9 473e a26d 1fbe
00000270: f0f9 ea3d ff0e 9b3d 7284 8f3d 4a6a eabd
00000280: 7142 473e 811d 433d a11b e73c b095 3fbe
00000290: fee7 b83d de26 08bd 2e9e cabd d736 3a3e
000002a0: b263 3d3d e61b f4bd 6796 dfbd 343b 3cbc
000002b0: cb42 f13d 6b47 64bd 34b2 fbbd 601b 98bd
000002c0: 85e0 23be f422 9a3d 8231 283e b554 4ebe
000002d0: bca4 473d 12fc df3d e537 1b3d 500c 9dbd
000002e0: 5554 e23d 97e8 e33d c4b5 a13d d446 14bd
000002f0: 5c25 62bd c909 c53c 66fb 14bd 335a 7fbd
00000300: 8cdf 0c3e 9ddb 3c3e 43ba a2bc b184 3ebd
00000310: 944e 8f3b 0b3e 3cbc 9379 4d3d 7842 703d
00000320: 5562 47be 3f55 a3bd 93b8 363e 07c9 a73d
00000330: 00fd 3fbc 77c0 04be 58b2 06be aab1 44be
00000340: 5c96 90bd 0de0 953d 2473 0c3e 1534 cc3d
00000350: 27c1 3fbe e111 02be 188f 04bd 5778 543e
00000360: 355c 033d fe38 5dbd bf18 b73d d9df a3bd
00000370: 26d6 0cbe b1d3 1f3e 6992 c5bd 5919 2dbd
00000380: f2b2 58be cf96 123e 99e0 253e 7a13 a03d
00000390: febf 17be 97ff 56be 77d7 30be 5a7e 213e
000003a0: 390c cf3d 1e6f 363e bc1e e23d 8af2 573d
000003b0: d439 5dbb ac46 27be 7556 3cbe 7a79 4dbe
000003c0: 2624 b03d acf1 d8bd 86d4 31bd b053 fcbd
000003d0: 4238 21bd 412f 1abe c52d 0fbe 83c7 8f3d
000003e0: e2d3 82bd 203f 063e be20 8dbd b5ac 20be
000003f0: 8f2b 1cbd 9bf1 d0bd 19de 82bd b37a 4ebe

bias f4 [16]
0.16117316 0.11771285 -0.21140441 0.01948703 0.13002707 -0.018826364 -0.12477047 0.2042581
-0.08072086 -0.122723095 -0.19156505 0.008816234 0.09382981 0.047894757 0.04312282 -0.16051424
00000000: 940a 253e 6f13 f13d 667a 58be 44a3 9f3c
00000010: d125 053e bf39 9abc a987 ffbd 0929 513e
00000020: fa50 a5bd 3f56 fbbd a129 44be f771 103c
00000030: d829 c03d 4b2d 443d 8ea1 303d d85d 24be

weight f4 [16, 2, 7]
-0.25344127 0.0008913397 0.2396752 0.1503152 -0.1592633 -0.03846785 -0.20072694 -0.12710056
0.050593097 0.14715317 0.2233674 -0.24411653 0.180522 -0.18648125 0.09947777 0.22556412
0.003142053 0.24254636 -0.22833066 -0.1026876 0.15527833 -0.05693575 -0.05341182 -0.11009209
0.18552184 0.13238937 0.086933725 -0.14889835 -0.21191792 0.03394936 0.084545396 -0.11875885
-0.069676064 0.18536144 0.026262484 0.013642395 -0.06433624 -0.24024628 -0.24942753 -0.12654509
-0.13456322 0.08475201 -0.07704556 -0.1037983 0.25556803 0.09386519 0.1913052 -0.12861973
-0.10840567 0.096981555 -0.17931901 -0.17596823 -0.0142112505 -0.09905342 -0.20161244 0.15726872
0.21474008 0.043176394 -0.046743657 -0.24774082 -0.09749886 0.06787314 0.12586056 -0.032380205
-0.104236655 0.15034415 -0.21148928 0.17020527 -0.102300026 0.005487462 -0.052766904 0.032462634
-0.08068655 0.1942896 -0.006875298 0.20863633 0.25701648 -0.1287993 -0.19349065 0.21577114
0.21091686 -0.2027831 -0.019306326 -0.26211056 -0.21306555 0.057364903 0.07656775 0.062539324
-0.06682769 0.2524286 0.044068344 -0.15583794 -0.012970464 0.06581848 0.09511328 -0.18780448
0.10204255 -0.13459967 -0.2220421 -0.14594166 0.25779712 0.22848356 0.23932204 0.15689492
0.201919 -0.034399256 -0.14563604 0.13483906 -0.1370072 -0.17886996 -0.08395074 0.05751283
0.13811721 -0.103272974 -0.15675947 0.03658841 -0.15699083 -0.1734694 0.1398438 -0.046210602
0.24290305 0.25866413 0.0786357 0.090660974 0.06023613 0.0028747683 -0.02024027 0.0028677732
0.09902674 0.24765421 -0.07009169 -0.11379939 -0.06553863 -0.12789927 0.046651598 0.20073818
0.21027672 0.123995334 -0.19546749 -0.14221603 -0.059771728 -0.05031616 0.020923713 -0.24640235
0.08212238 -0.20494199 -0.1701606 -0.22088884 0.23418014 -0.25175932 0.20292555 -0.007671994
-0.02978028 0.16847222 -0.025270343 0.16705635 0.1926512 -0.23257113 0.102164 0.049847864
0.05684494 0.037392426 0.07157279 -0.13042203 -0.035768658 0.25257906 0.17798208 -0.0115794595
-0.25225544 0.010827461 -0.18288404 0.21641308 -0.16313997 -0.020198263 -0.060206182 0.048789084
0.2527493 0.026615663 0.15602164 0.2086412 0.21696605 -0.0910676 -0.06051564 0.12805979
-0.07367479 0.12440074 -0.05913931 -0.182015 0.10804206 0.04225101 0.120420165 0.26681906
0.18369998 0.25462264 0.015562527 -0.22864674 -0.18681556 -0.16533816 -0.23483461 -0.1332879
-0.24534981 -0.24590676 -0.15903206 -0.26472846 -0.16531715 0.10065462 0.22161515 -0.08078164
-0.07900966 0.14143464 -0.13135087 -0.12585895 0.16518134 -0.23235224 0.03319812 0.2366041
0.04634267 0.071356095 -0.15696394 -0.0050329166 0.013391764 0.06426544 0.102527 0.2309193
00000000: 0ec3 81be cba8 693a 6a6d 753e 3aec 193e
00000010: eb15 23be 7790 1dbd 5d8b 4dbe a626 02be
00000020: b53a 4f3d 52af 163e 6cba 643e aff9 79be
00000030: c2da 383e f1f4 3ebe 00bb cb3d 48fa 663e
00000040: e7ea 4d3b 135e 783e 83cf 69be e04d d2bd
00000050: 4801 1f3e 7635 69bd 5ac6 5abd f677 e1bd
00000060: 70f9 3d3e 1491 073e 4f0a b23d cf78 18be
00000070: 0301 59be 7c0e 0b3d 2326 ad3d d737 f3bd
00000080: 53b2 8ebd 64cf 3d3e 6c24 d73c 5a84 5f3c
00000090: b8c2 83bd 1f03 76be ee69 7fbe 0995 01be
000000a0: f1ca 09be 7692 ad3d 10ca 9dbd 3494 d4bd
000000b0: d0d9 823e 653c c03d 83e5 433e e4b4 03be
000000c0: cb03 debd 449e c63d 679f 37be 0431 34be
000000d0: 4ed6 68bc 85dc cabd 7e73 4ebe 0d0b 213e
000000e0: d3e4 5b3e bbd9 303d 4776 3fbd c5af 7dbe
000000f0: 7bad c7bd 1301 8b3d 97e1 003e 1ba1 04bd
00000100: 077a d5bd d1f3 193e a590 58be 4a4a 2e3e
00000110: ad82 d1bd 2bd0 b33b 1c22 58bd 8af7 043d
00000120: fd3e a5bd daf3 463e 2e4a e1bb c3a4 553e
00000130: aa97 833e f7e3 03be 6a22 46be 1cf3 5c3e
00000140: 97fa 573e 5fa6 4fbe 4d28 9ebc 5b33 86be
00000150: db2d 5abe 76f7 6a3d 8dcf 9c3d 9e14 803d
00000160: f5dc 88bd 523e 813e 0281 343d fb93 1fbe
00000170: 1282 54bc d7cb 863d c0ca c23d d14f 40be
00000180: affb d03d 7fd4 09be 015f 63be bb71 15be
00000190: fcfd 833e 98f7 693e d610 753e 10a9 203e
000001a0: dbc3 4e3e 3ce6 0cbd 9d21 15be 4013 0a3e
000001b0: 9e4b 0cbe b029 37be 5eee abbd 9392 6b3d
000001c0: 996e 0d3e c880 d3bd 8e85 20be bbdd 153d
000001d0: 34c2 20be f6a1 31be 3733 0f3e 5447 3dbd
000001e0: 94bb 783e a06f 843e c10b a13d 76ac b93d
000001f0: 29ba 763d 9c66 3c3b ecce a5bc 40f1 3b3b
00000200: 88ce ca3d 1199 7d3e 3b8c 8fbd a80f e9bd
00000210: 1e39 86bd 07f8 02be bf15 3f3d 4f8e 4d3e
00000220: c852 573e 44f1 fd3d a128 48be 14a1 11be
00000230: 33d3 74bd 5118 4ebd 3568 ab3c e650 7cbe
00000240: c72f a83d 50dc 51be 953e 2ebe af30 62be
00000250: ebcc 6f3e 99e6 80be b7cb 4f3e 5a65 fbbb
00000260: c6f5 f3bc fb83 2c3e c003 cfbc d210 2b3e
00000270: 5b46 453e 2027 6ebe 5c3b d13d 462d 4c3d
00000280: 3dd6 683d cd28 193d c194 923d 5a8d 05be
00000290: 2882 12bd 0b52 813e ef40 363e c6b7 3dbc
000002a0: a027 81be aa65 313c f445 3bbe 649b 5d3e
000002b0: 2a0e 27be d476 a5bc c29a 76bd 10d7 473d
000002c0: 5b68 813e 1709 da3c 23c4 1f3e 0aa6 553e
000002d0: 592c 5e3e a681 babd 3fdf 77bd 1b22 033e
000002e0: cfe2 96bd d1c5 fe3d 103c 72bd 2462 3abe
000002f0: 2845 dd3d 650f 2d3d d99e f63d 829c 883e
00000300: d91b 3c3e e65d 823e f8f9 7e3c 5f22 6abe
00000310: 944c 3fbe 684e 29be 7c78 70be a07c 08be
00000320: fb3c 7bbe fbce 7bbe 4dd9 22be 7d8a 87be
00000330: e648 29be 0224 ce3d 15ef 623e d870 a5bd
00000340: d1cf a1bd 3ed4 103e d880 06be 2be1 00be
00000350: 4c25 293e bfed 6dbe c0fa 073d 5848 723e
00000360: d0d1 3d3d 2523 923d 28bb 20be 2aeb a4bb
00000370: 2169 5b3c 999d 833d adf9 d13d 1c76 6c3e

bias f4 [16]
-0.20836712 0.0072033233 -0.12820451 -0.21044448 -0.021746797 -0.235361 0.19266963 0.03082758
-0.14330983 0.13863741 -0.2542494 -0.10385934 -0.053185377 -0.2280639 -0.16906586 -0.042915013
00000000: 315e 55be db09 ec3b 0b48 03be c27e 57be
00000010: 5726 b2bc 7902 71be 304b 453e 1f8a fc3c
00000020: d0bf 12be f7f6 0d3e fa2c 82be 35b4 d4bd
00000030: e9d8 59bd 9589 69be 9a1f 2dbe a7c7 2fbd

weight f4 [1, 32, 5]
0.06085404 0.07722094 0.0511923 -0.04632638 -0.05083979 0.070387065 0.029348778 0.0034878568
0.012095649 -0.062145583 -0.021112643 0.081089936 -0.0141588 0.0008817669 -0.06006119 -0.042053778
0.00046020382 -0.046887793 -0.007700515 0.03428478 -0.07865578 0.022159606 -0.053589333 -0.0399077
0.029027114 0.061801676 -0.022695154 -0.033533797 -0.072564185 -0.041833945 -0.0694827 -0.018437987
0.015864193 -0.074374765 0.06870743 0.047813013 -0.07917174 -0.039548833 0.023960734 -0.018050792
-0.007826755 -0.03484047 0.064371236 -0.04339911 0.06633948 0.0074396995 0.018296696 0.06408105
-0.010648133 -0.042694796 -0.009860035 0.06701122 -0.055508025 0.021085477 -0.07449177 0.04067415
0.028424233 0.0025761249 0.033089265 -0.00068504864 0.042288058 -0.064040124 -0.013062421 0.03360021
0.07727356 0.039161686 -0.058590256 0.0596935 -0.018729135 -0.017977284 -0.073356785 -0.013945674
0.05441239 0.009525098 -0.047538634 0.023211166 -0.026480881 0.07107035 -0.06973463 -0.026088431
-0.07085533 -0.02535186 0.031252835 0.08191247 0.019445386 0.07772073 0.015561829 0.04585469
0.063490234 0.06617413 -0.045494806 0.07144672 0.046643026 -0.038196854 -0.038972363 -0.06754709
0.0186219 -0.065312035 0.032169543 0.023721894 -0.070025995 0.020202475 -0.007861649 0.034696463
0.04400019 -0.08005416 0.07105704 0.0648607 0.029989002 -0.07369597 -0.029952481 -0.0246054
-0.021994673 0.042889826 0.02705976 0.060852546 -0.031356666 0.024834475 0.026363738 -0.0675718
-0.075241305 -0.039578285 0.055565394 -0.0729886 -0.06736137 0.04524933 0.043592982 0.065980785
-0.058786042 -0.056925114 0.059490487 0.08758006 0.06642015 0.031488303 0.04486934 0.0762711
-0.049795315 -0.0346766 0.056515392 -0.052880734 -0.04216426 0.05912783 0.0263712 0.026962023
-0.032082923 0.00030553827 0.07374218 -0.046062343 0.0019949256 0.038992092 -0.054781716 0.07656921
-0.039673954 -0.019194417 -0.021595519 -0.05016083 -0.07623014 0.04592935 0.022346992 -0.07269192
00000000: 1642 793d 0326 9e3d 04af 513d bbc0 3dbd
00000010: 623d 50bd 1827 903d d96c f03c 8794 643b
00000020: d42c 463c 5e8c 7ebd 6cf4 acbc 7b12 a63d
00000030: 50fa 67bc 6026 673a b902 76bd 9540 2cbd
00000040: 8347 f139 6a0d 40bd 9a54 fcbb 336e 0c3d
00000050: 4816 a1bd 1088 b53c 7d80 5bbd 4276 23bd
00000060: 45ca ed3c c123 7d3d 30eb b9bc bc5a 09bd
00000070: 889c 94bd 125a 2bbd f24c 8ebd 430b 97bc
00000080: a0f5 813c cc51 98bd 7bb6 8c3d 94d7 433d
00000090: cb24 a2bd f5fd 21bd 4d49 c43c 41df 93bc
000000a0: ca3b 00bc e1b4 0ebd 11d5 833d 44c3 31bd
000000b0: fedc 873d b9c8 f33b f4e2 953c ed3c 833d
000000c0: 8275 2ebc bde0 2ebd fc8b 21bc 2e3d 893d
000000d0: 625c 63bd 73bb ac3c 248f 98bd f099 263d
000000e0: f0d9 e83c 34d4 283b 9c88 073d d694 33ba
000000f0: 3e36 2d3d 7827 83bd c403 56bc 60a0 093d
00000100: 9a41 9e3d 0168 203d 56fc 6fbd 2c81 743d
00000110: d86d 99bc 1945 93bc 153c 96bd 657c 64bc
00000120: 87df 5e3d 280f 1c3c dfb7 42bd 5825 be3c
00000130: 6fee d8bc 558d 913d 08d1 8ebd 68b7 d5bc
00000140: 991c 91bd b4ae cfbc f902 003d bac1 a73d
00000150: ee4b 9f3c 0c2c 9f3d 0bf7 7e3c 21d2 3b3d
00000160: 2b07 823d 4d86 873d c358 3abd a852 923d
00000170: c20c 3f3d 4e74 1cbd 7ca1 1fbd 2156 8abd
00000180: f48c 983c 51c2 85bd 36c4 033d 6b54 c23c
00000190: ca69 8fbd a97f a53c 25ce 00bc e11d 0e3d
000001a0: 8b39 343d 6ff3 a3bd 5a86 913d b0d5 843d
000001b0: 7fab f53c eaed 96bd e85e f5bc 4491 c9bc
000001c0: 2c2e b4bc 3ead 2f3d 6eac dd3c 8540 793d
000001d0: d96f 00bd ab71 cb3c c4f8 d73c 1563 8abd
000001e0: 1d18 9abd d71c 22bd 8a98 633d 0c7b 95bd
000001f0: c2f4 89bd 5d57 393d 8e8e 323d ef20 873d
00000200: a2c9 70bd 4f2a 69bd 4cac 733d 2d5d b33d
00000210: 4a07 883d e1f9 003d eac8 373d 0634 9c3d
00000220: 2cf6 4bbd 0d09 0ebd af7c 673d 7899 58bd
00000230: 6eb4 2cbd 0630 723d 6a08 d83c 76df dc3c
00000240: 6269 03bd a730 a039 2406 973d deab 3cbd
00000250: 4cbd 023b 2cb6 1f3d cb62 60bd 51d0 9c3d
00000260: 2881 22bd 9c3d 9dbc 16e9 b0bc 7175 4dbd
00000270: 8c1e 9cbd 6a20 3c3d 0a11 b73c 80df 94bd
