raw_indeep_corrector/metad_corrector.pt (torch, 5975 bytes, 5 tensors)

weight f4 [16, 2, 11]
000000 62 f9 31 3e fe 65 03 bc 13 bb 15 3e d5 da 09 be
       0.17380288 -0.008019922 0.14622144 -0.13462384
000010 c8 85 17 be d7 df 47 3e 65 fc 3d be 9c c5 42 be
       -0.14797127 0.19518982 -0.18553312 -0.19020694
000020 39 05 08 3d f6 c0 89 bd 50 99 12 be 75 05 31 be
       0.033208106 -0.067262575 -0.14316297 -0.17287238
000030 e0 34 18 3e f0 29 fc 3d 76 02 cc bd 4d ce e9 bd
       0.1486392 0.123126864 -0.09961407 -0.11416302
000040 21 3b 04 be a5 a4 2d bb c9 e4 c1 bc 8a 17 b7 3d
       -0.12913181 -0.002649584 -0.023668664 0.089400366
000050 68 a2 13 be 35 ac cf bd 2a ac 1a be a4 fc cd bd
       -0.14417422 -0.10140268 -0.15104738 -0.10057953
000060 e6 59 16 be 6e 9a c7 3d af ab 97 bd 5f fc f2 3d
       -0.14682731 0.09746252 -0.07405793 0.11864542
000070 86 e7 13 be 3d ba a3 3d 9b 3f 81 3d ec b3 5b bb
       -0.14443788 0.079945065 0.0631096 -0.003352399
000080 ed 2f 2b be 18 b0 c8 3d c2 a3 2a 3e dc e7 7f 3d
       -0.16717501 0.09799212 0.16664031 0.062476978
000090 80 77 c6 bd f5 eb 29 3e 55 70 d2 3d 75 5d 3a be
       -0.096907616 0.16593917 0.10275332 -0.18199714
0000a0 56 8d 22 be b4 27 ff 3d 7b 9d 49 3e da c4 b6 3b
       -0.15874228 0.12458745 0.1968898 0.0055776658
0000b0 e8 11 9d 3c 35 c5 9d bd ba 7f d4 3d b7 17 78 bd
       0.019173577 -0.0770363 0.103759244 -0.06056949
0000c0 4c 5e 8d 3a 0c 58 8b 3d 6d d4 cb bc bd 60 92 3d
       0.0010785549 0.06803903 -0.024881566 0.071473576
0000d0 e0 d2 2e be 57 b6 3f 3d 13 f2 b0 bc c5 04 b2 bd
       -0.1707263 0.046804752 -0.021599805 -0.08692316
0000e0 49 00 d5 3d 1c 22 45 3e 57 21 81 3a 82 5f 88 bd
       0.10400445 0.19251293 0.0009851855 -0.06658842
0000f0 cd fd 4a be 63 52 07 3e 31 ec 00 3e ca 86 da 3d
       -0.1982338 0.13215022 0.125901 0.1067024
000100 c7 77 36 3e 77 46 55 3e 81 55 01 3e 0b 91 ec bd
       0.17819129 0.20827661 0.12630273 -0.11551102
000110 7d 4e 1c 3d 82 eb 33 3e c0 93 b7 3d ce c6 cb 3d
       0.03816079 0.17570308 0.08963728 0.09950028
000120 c4 7a 68 3c 3a 6f f3 bd a3 b0 03 3e 23 3c 98 3d
       0.014189426 -0.11886449 0.1286035 0.07433345
000130 f6 6d 5e bd 96 5b 20 3e 6c e1 0f 3c 09 d5 9a 3d
       -0.054304086 0.15659937 0.008781772 0.075601645
000140 69 de aa 3d 44 f6 be bc ad 5e 44 3e ce 35 42 bd
       0.083432026 -0.023310788 0.19176741 -0.047414593
000150 a8 e3 18 3e 18 a0 c8 3b 15 a3 09 be 36 04 b0 bd
       0.14930594 0.0061226003 -0.13441117 -0.08594553
000160 93 e2 bc bd 8b 9c cb bd 7f 7c 43 3b 1e 0d ae bc
       -0.09222903 -0.099419676 0.0029828844 -0.02124649
000170 70 9b ba bd 2f 37 1a 3e 61 46 20 3e 21 ae 7d 3d
       -0.091116786 0.15060113 0.15651847 0.06193364
000180 96 7b 57 3c 42 35 09 3e ce 85 4d 3e e7 0f a4 3c
       0.013152024 0.13399222 0.20070574 0.020027114
000190 7a e4 59 be a0 70 18 3e 6c 85 d8 bd d2 e5 f6 3d
       -0.21278563 0.14886713 -0.10572323 0.120555535
0001a0 e8 09 5e be 64 83 f0 3d c1 0d 53 be d5 dd 5b be
       -0.21683466 0.11743811 -0.20610715 -0.21471341
0001b0 4b 09 f2 bd c4 4a 46 3b b5 49 1c be 30 9d 9c bd
       -0.11818179 0.0030256966 -0.15262492 -0.07647169
0001c0 a6 36 10 be 1e 7a 27 3e 0a c6 0f be e2 3b 53 3d
       -0.14083347 0.16355178 -0.1404039 0.05157078
0001d0 71 be 0c be 67 db 59 be 0f 03 29 3e f1 a2 08 3e
       -0.13744523 -0.21275102 0.16505073 0.13343407
0001e0 c4 a6 17 bb b3 f1 d8 3d 43 6b f5 bd ca 99 11 3e
       -0.0023140172 0.105929755 -0.11983349 0.14218822
0001f0 90 e9 d2 bd be 89 1d 3e a1 cd 65 3c 93 06 88 3d
       -0.10298455 0.15384576 0.0140260765 0.06641879
000200 21 05 31 3e a1 8a 9c bd 11 d0 84 bd a4 fe 4e be
       0.17287113 -0.07643629 -0.06484998 -0.20214325
000210 a8 1c 23 be 22 7f bf bd e9 80 13 3e 36 88 05 be
       -0.159289 -0.093504205 0.14404644 -0.13040242
000220 1c a4 c0 bd 92 44 b4 3d 41 f7 21 be 2a 27 bd bd
       -0.094063014 0.08802141 -0.15816976 -0.092359856
000230 58 4c 49 3e cf e5 5a 3e 54 4a 0a 3d c8 26 05 be
       0.19658029 0.21376728 0.03376229 -0.13003075
000240 b4 9d e0 3c 79 1b 50 be ef e6 b8 3c 93 30 c1 bd
       0.027418949 -0.2032298 0.022571055 -0.09433093
000250 38 51 26 be 40 37 ef bd 81 81 cd bb b4 ea 1a be
       -0.1624192 -0.1168046 -0.0062715416 -0.15128595
000260 6c 82 09 be 29 78 05 3e eb f1 cb bb ff fe aa 3d
       -0.13428658 0.13034119 -0.006223907 0.08349418
000270 11 43 cd 3b e3 9b a6 bd 22 9d 54 bd a0 33 24 be
       0.0062640985 -0.08135202 -0.051907666 -0.16035318
000280 1e c7 4a 3e 19 a5 16 3d 35 50 1b 3e 7a 6d 4b 3e
       0.1980252 0.036778543 0.15167315 0.1986598
000290 0e 3f ad 3c 73 57 c9 bd 62 3c 30 be ae b2 d5 bd
       0.02114823 -0.09831133 -0.17210534 -0.10434471
0002a0 d7 95 9f 3d 17 ae 02 3e 4c 41 e2 3d 2e f5 2d bd
       0.077922516 0.12761723 0.11047611 -0.04247015
0002b0 38 b9 4f be 2e 5b 52 be 1b bc d7 3d 9e c7 8f 3d
       -0.20285499 -0.20542595 0.10533925 0.07020496
0002c0 12 70 31 3e f7 4b 36 3e 40 05 e7 bc 28 90 c5 bd
       0.17327908 0.17802416 -0.028200746 -0.09646636
0002d0 65 77 1b 3e 03 68 fd 3d 8e 3e cc bc e3 c7 4a be
       0.15182264 0.12373354 -0.024932172 -0.19802813
0002e0 99 dd 25 3e d7 ad d7 3d 11 90 b8 3c 38 be 48 3e
       0.16197814 0.10531204 0.022529634 0.19603813
0002f0 2f 01 47 bd 2d 5b 4f 3e 4c 6f 18 3d 53 44 d5 3d
       -0.048585113 0.20249625 0.037215516 0.104134224
000300 12 4b 7d bd 64 36 4c be d9 2a ac bd 56 a1 4b be
       -0.06183917 -0.19942623 -0.0840661 -0.19885764
000310 6f 0c 3c be 61 b0 b7 3d f9 c1 b2 bd e7 74 50 3e
       -0.18364118 0.089691885 -0.087284036 0.20357095
000320 15 6a 58 be 15 9e 60 be 06 24 b7 bd b4 b4 01 be
       -0.21134217 -0.21935304 -0.08942418 -0.12666589
000330 d4 39 c3 bb 62 35 cc 3d 1f 37 94 3d 6a ac 5e bd
       -0.0059578214 0.099711195 0.07237076 -0.054363646
000340 28 e1 db 3d a2 1c 07 be ef 7c 31 3d b6 79 06 be
       0.107363045 -0.13194516 0.043332037 -0.13132367
000350 28 52 63 bd e5 0c b7 bd 62 dd d1 bc af 88 46 3e
       -0.055498272 -0.08938006 -0.025618259 0.19388078
000360 f6 f3 51 3e fb 5c 01 3e d4 27 b4 3d 99 32 17 be
       0.2050322 0.12633125 0.08796659 -0.14765395
000370 68 9f b8 3d 89 a1 dc 3d 44 43 4d 3e 0a 17 44 be
       0.09014779 0.10772998 0.20045191 -0.19149414
000380 51 e9 2a 3e 6c 23 36 be 49 62 04 3e 81 d0 9d bd
       0.16690566 -0.1778695 0.12928118 -0.077057846
000390 96 91 53 be 44 a7 35 bd 82 65 57 bd 56 c2 19 be
       -0.20661005 -0.04434897 -0.05258704 -0.1501554
0003a0 fe 8c 8f bd 8e 3b 7a 3d 8a 65 fe 3d 44 b0 29 be
       -0.07009314 0.061091952 0.12421711 -0.16571146
0003b0 b5 3e a6 bd af 7c 2d 3e f5 d4 02 3e 80 2b f2 bd
       -0.08117429 0.16942094 0.12776549 -0.11824703
0003c0 e5 f3 26 3e 8b df 00 3e 80 c8 7a bd 77 b0 e8 3c
       0.16303976 0.12585275 -0.061226368 0.028404457
0003d0 59 97 07 3d 50 e3 e7 bc 41 32 27 3e 2f 8c 08 bb
       0.03310332 -0.028306633 0.16327764 -0.002083551
0003e0 4e f0 ca 3d 73 bb ea 3d c2 08 fe 3c d3 06 d7 bd
       0.09909116 0.11461534 0.031010035 -0.104993485
0003f0 1e d1 48 be 71 ed 5c bd a5 51 2b be 8d 16 27 3e
       -0.19611022 -0.05393738 -0.16730364 0.16317196

bias f4 [16]
000000 a5 ce 48 3d f6 de 0f be cd 42 98 3d 53 bb 34 bd
       0.049025197 -0.14049897 0.07434616 -0.04412396
000010 fe 50 62 3d 6f 99 4f be 32 c5 18 3e 28 63 3c 3d
       0.05525302 -0.20273374 0.14918974 0.045993
000020 30 e2 41 be 20 94 e6 bd 12 6e 6a bd b6 9b b4 bd
       -0.1893394 -0.11258721 -0.057233877 -0.08818762
000030 ee e7 cf 3b 86 ee 8d bd 11 67 81 3d b8 3c d3 3d
       0.006344787 -0.0693026 0.063184865 0.103143156

weight f4 [16, 2, 7]
000000 90 21 39 be 3e 39 45 3c b9 91 20 3e a3 7f 5f 3d
       -0.1807921 0.012037573 0.15680589 0.054565083
000010 41 3d 13 3b 56 f6 85 3d 98 37 72 3d e9 94 57 be
       0.002246693 0.065411255 0.05913505 -0.21052898
000020 15 e1 74 3e 6b c2 3a be 5a 07 c5 bd 6b 14 0a bd
       0.23913987 -0.18238227 -0.09620543 -0.03371088
000030 42 88 24 3e 92 01 0c be d5 f7 3d be 01 e1 59 3d
       0.16067603 -0.13672474 -0.18551572 0.053193096
000040 97 21 96 3c 0c f2 e1 3d d4 97 12 3e 02 7d 6c 3e
       0.018326564 0.11032495 0.1431573 0.23094562
000050 e5 c6 8d 3e 31 ca 68 3d 93 74 0e 3d 23 e8 ce bb
       0.27690807 0.05683345 0.034779143 -0.006314294
000060 42 1e 4c 3e 1e b7 79 be 86 7f 23 3e 00 4c 9f 3d
       0.19933417 -0.2438626 0.15966615 0.07778168
000070 a8 a4 57 3e 76 e7 5d 3e 54 23 01 bd 2c 6f 6e be
       0.21058905 0.21670327 -0.031527832 -0.23284596
000080 9e 0f 28 bb 79 45 2e 3e b9 5d 4c 3d 6e 5c dd 3c
       -0.0025644074 0.17018689 0.04989407 0.027021613
000090 8e 44 68 be e1 3e c8 bc 13 df a2 3d 8f 29 f9 bd
       -0.22682402 -0.024444045 0.07952704 -0.1216613
0000a0 c0 5c 43 3b b1 2b f2 3d b7 f0 a6 3c 09 dd 82 be
       0.0029809922 0.1182474 0.020378454 -0.2555926
0000b0 37 ec 43 3e fa 70 63 be fd 2f 64 3e 8b 11 0c 3e
       0.19133078 -0.22211066 0.22283931 0.13678567
0000c0 b6 f3 f0 3c be 6f 84 3d 5e 86 00 3e 34 aa b5 bd
       0.029413085 0.06466626 0.12551257 -0.08870354
0000d0 b2 0c 5b be 96 fd 52 3e 11 d3 0a be a2 57 99 bd
       -0.21391562 0.20604548 -0.13557078 -0.07487418
0000e0 e8 09 85 3c 01 65 0d 3a bf 12 01 3d 04 24 b0 3c
       0.016240075 0.0005393774 0.03151202 0.021501549
0000f0 a2 d4 1f 3e 96 42 37 be e7 72 31 be 13 42 36 3e
       0.15608457 -0.17896494 -0.17328988 0.17798643
000100 7c 4d 62 bd f4 9a 23 be 9a da 0b 3e 7b be 87 3e
       -0.055249676 -0.15977079 0.13657609 0.26512513
000110 5c d3 cf 3d 7c dc 4e bd 5b 11 01 3e ea 54 37 3e
       0.101477355 -0.05050324 0.12604277 0.17903486
000120 7e 3f 0c bd d9 9f 05 3e 11 c0 db bc 89 ac 7e 3e
       -0.03424024 0.13049258 -0.026824983 0.24870504
000130 48 06 74 bd 1b 09 0c be 01 a7 4a be 0a 9d e2 3d
       -0.059576303 -0.13675348 -0.1979027 0.11065109
000140 fb 52 80 3d 90 45 e9 3d c3 78 83 be 41 7a 03 be
       0.06265827 0.11390221 -0.2567807 -0.12839605
000150 b9 19 16 3d 4b 03 05 3e 11 a9 43 be 3c d9 6e be
       0.036645625 0.12989537 -0.19107462 -0.23325056
000160 7c fb 33 3e 54 21 3d be 19 f3 41 3e c2 9c 46 3e
       0.17576402 -0.18469745 0.1894039 0.19395736
000170 be 63 22 be d0 09 92 3b 9f a7 0e be a9 08 60 3e
       -0.15858361 0.004456736 -0.1393113 0.21878304
000180 38 3f 65 be 0b df 85 be e4 07 92 3d 65 d9 fe 3d
       -0.22387397 -0.2614673 0.07130411 0.124438085
000190 ac ee 43 be 17 75 61 3e 2e 88 02 3d 6d e9 3b be
       -0.19134015 0.22017322 0.031868152 -0.18350764
0001a0 95 74 22 3e ee ba 4d 3e 42 4a 9b 3c 8f 0d 53 3e
       0.15864785 0.2009084 0.018956307 0.20610641
0001b0 d7 9f 77 3e 52 a9 38 be 30 cf 41 3e 9b d1 40 be
       0.24182068 -0.1803334 0.18926692 -0.18829958
0001c0 54 2a a5 3d 64 f3 ed 3d a4 bf 8c bc a0 d7 08 3e
       0.08064714 0.11618689 -0.017181225 0.13363504
0001d0 e8 3c 54 bc 34 cb 72 3e f6 bf 5e bd ae ef 53 bd
       -0.012953974 0.23710328 -0.054382287 -0.05174225
0001e0 c7 7a 99 3d 4e 42 45 bd 5f d0 99 3d 04 ea 21 3d
       0.07494121 -0.048158936 0.07510447 0.039529815
0001f0 f6 59 4c 3e 26 05 ba 3d 0c 64 41 be 93 13 82 be
       0.19956192 0.09083013 -0.18885821 -0.2540556
000200 85 59 3b be 3b 90 69 3e 06 9f ad bb 4b 8a cd 3d
       -0.18295868 0.22808926 -0.005298498 0.10036143
000210 d7 a2 7b 3e f1 b1 4d bd f0 7e 23 3e 79 86 9a bd
       0.24573837 -0.050218526 0.15966392 -0.0754518
000220 11 39 50 be 16 4a 21 3e 34 49 0d 3c 00 84 0b be
       -0.20334269 0.15750918 0.00862341 -0.13624573
000230 4a 36 f6 bc 23 ae 67 be 7d d1 44 3d ac e1 68 be
       -0.030055184 -0.22625022 0.048051346 -0.22742337
000240 9d 13 7e 3e d5 8a 53 be 39 f3 20 bd 24 83 8f 3d
       0.2481217 -0.20658429 -0.039294455 0.07007435
000250 e2 9d 1b be 77 96 94 bd 0f 81 74 3e b2 e8 69 3e
       -0.15196946 -0.072552614 0.23877357 0.22842672
000260 2a ee 3c 3d 50 e2 bf 3b a6 1a 8a be bc 31 fe 3b
       0.04612557 0.005855836 -0.26973456 0.0077573936
000270 05 5e 4d 3d 58 13 db 3d 2d 2d 24 be d3 1b 8b be
       0.050138492 0.10697049 -0.16032858 -0.27169666
000280 76 c1 e5 bc 16 f6 54 3e 13 64 1c be 2c 8f ea bc
       -0.02804635 0.20797 -0.1527255 -0.028632723
000290 c9 09 52 3d 8d 0a 53 bd 67 47 24 3e 67 48 bd bd
       0.051278863 -0.051523734 0.16042863 -0.09242325
0002a0 a4 43 42 3d 3d f5 c8 3d 42 b3 9b 3c 15 c1 4c be
       0.04742779 0.098124005 0.019006375 -0.1999553
0002b0 97 3e c3 3d d1 69 9c bc 8a 03 6a 3e 30 cf 55 be
       0.095334224 -0.019093426 0.22852913 -0.20879817
0002c0 3a 94 79 be 96 10 6c 3e 53 92 a1 bd 69 45 6f 3e
       -0.2437295 0.23053202 -0.07889237 0.23366322
0002d0 eb eb 28 be cb 69 85 bd 62 71 0b 3d a3 e4 69 bd
       -0.16496246 -0.06514319 0.034043677 -0.05710281
0002e0 0a 36 6e be d5 1b 19 bd 39 33 1a 3e de d6 2c be
       -0.23262802 -0.03738006 0.15058602 -0.1687884
0002f0 f2 0d ca bc d0 a4 17 3e 46 69 aa 3d 9a fa 49 3e
       -0.024664853 0.14808965 0.083208606 0.19724503
000300 43 eb 29 3e 7b 20 35 3e ea e1 bc 3d 2c e3 62 be
       0.16593651 0.17688172 0.09222777 -0.22156972
000310 26 06 e4 3c cc 0a 1d be f8 fc 7d be f5 65 3b bd
       0.027834963 -0.1533615 -0.24803531 -0.04575153
000320 08 57 37 be 24 64 54 3e 7d d6 4d be b5 fc 6b 3e
       -0.17904294 0.20741326 -0.20101352 0.23045619
000330 01 a9 4d 3e d2 d8 94 bd e0 bc 8d bd 32 0e 2a bd
       0.20084001 -0.07267918 -0.06920791 -0.041517444
000340 59 d4 01 3e 3f ff 78 be 14 d7 8b be b1 98 29 be
       0.1267866 -0.24316119 -0.2731253 -0.16562153
000350 81 58 76 bd 46 96 c9 bd 8f 29 5e 3c 49 09 d6 3d
       -0.060142998 -0.098431155 0.013559713 0.1045099
000360 43 42 80 be fb bf 79 3e 8d e3 b0 bd f6 a5 85 be
       -0.25050554 0.24389641 -0.08637152 -0.2610318
000370 db cb 8f bb 50 83 9a bd 2a ce 4c bd 00 96 92 bd
       -0.004388315 -0.07544577 -0.0500013 -0.071575165

bias f4 [16]
000000 ba 95 c3 bc b2 45 75 be 63 4a 15 be 92 8a 7e bd
       -0.023875106 -0.23952368 -0.14579158 -0.06214387
000010 8b b1 2c bd a5 6d 85 3e 0f df 6e bd 4b f2 ef 3d
       -0.042161506 0.26060215 -0.058318194 0.117161356
000020 54 d4 8c 3e 2c 1a 9d 3d 8d e1 7e bd a6 88 b3 3d
       0.27505744 0.076710075 -0.06222682 0.08766298
000030 c8 8e b6 bd 8f 69 0f be 52 9b 0b bd 67 78 1b be
       -0.08913952 -0.14005111 -0.034083672 -0.15182649

weight f4 [1, 32, 5]
000000 03 da 6d 3d 02 bd 47 bc f1 5a 00 3d 44 63 1b bb
       0.05806924 -0.012191059 0.03133673 -0.002371029
000010 93 3d 97 bc bf 26 9b bc 96 28 81 bc 4b b8 9d bc
       -0.018461978 -0.018939374 -0.015766423 -0.019252917
000020 6d 9f 6b 3d 91 ce 89 bd 9e 6a 66 3d 0d 0c 27 bd
       0.057525087 -0.067288525 0.05625402 -0.040782977
000030 5e ea b0 3d a3 95 7d 38 3b 50 cc 3b e4 81 14 3d
       0.08638452 6.045926e-05 0.00623515 0.036256686
000040 17 8c 1a 3d 4f 93 29 3d 79 2a 8a 3d cb 4b 83 bd
       0.037731256 0.04140025 0.06746382 -0.06410941
000050 3c eb 52 3d a4 c6 97 bd 16 65 42 bc 0e bd 97 bd
       0.05149387 -0.074109346 -0.011864921 -0.07409106
000060 25 6f 04 3c 28 82 e4 3c a2 76 f5 3b 98 51 8c bd
       0.00808314 0.027894095 0.007490949 -0.068515
000070 e2 2e 0f bd 2a c7 0f 3d 1b 8d 40 3d a4 5d ed 3c
       -0.03495682 0.035102047 0.04700957 0.028975315
000080 46 21 90 3d a3 6f 52 bc 92 4c 4d 3d c4 ed 83 bd
       0.070375964 -0.012843999 0.05012185 -0.064418346
000090 7b 4b f2 3c cc 25 6f bd 4c 72 7d bd 9e 22 83 3d
       0.029577008 -0.058385655 -0.06187658 0.06403087
0000a0 ce 3f 21 bd a4 1c 91 3c cd 0c 08 bc ac 96 fd bc
       -0.03936749 0.017713852 -0.008303833 -0.030955635
0000b0 d4 6f 81 3d 37 09 1c 3d 49 53 d4 bc 23 e7 90 bd
       0.06320158 0.038094725 -0.02591862 -0.07075336
0000c0 60 0f 30 bc 7d 45 fc bc 50 de 40 3d d4 7c 55 3d
       -0.010745853 -0.030794853 0.047087014 0.052121
0000d0 fb ec 44 bd f6 e3 42 bd fe cc eb 3c 37 17 a8 ba
       -0.048077565 -0.04758068 0.028784271 -0.0012824301
0000e0 2d be 42 bd b7 77 24 3d 45 e2 a6 3d 4c b5 ad 3d
       -0.047544647 0.04015323 0.08148626 0.08481845
0000f0 56 cb b0 3c 07 97 d2 bb cd ed 38 3d 61 58 a3 3d
       0.021581333 -0.0064266953 0.04514866 0.07975841
000100 03 23 e3 bc e6 bd 0c 3c d5 bf 7e bd a5 72 ba bc
       -0.027726656 0.008590197 -0.062194664 -0.022759745
000110 8f 8b 05 bd 50 06 0f 3c dc 40 93 bd 7c 8f 5b bd
       -0.032603797 0.008729532 -0.07190105 -0.053603634
000120 a1 5e eb bb a0 03 9a 3d 71 28 15 bd c2 d3 e8 bc
       -0.0071829115 0.07520223 -0.03641552 -0.028421286
000130 e9 1a ec bc d6 9c 3b 3d c0 4d a3 3c 08 e5 89 bc
       -0.028821426 0.045803867 0.019934535 -0.016832843
000140 ae c3 35 3c f1 00 22 bd 61 80 54 bc 82 2b c0 3b
       0.011094017 -0.03955168 -0.012970061 0.0058645615
000150 5c 3c 92 bd bd 3d 2a bd ca fe a0 3d cc 58 7f bc
       -0.07140419 -0.041562784 0.07861097 -0.015585136
000160 89 af 31 3c f4 98 9a 3c 11 13 a5 3c 00 62 41 bd
       0.0108450735 0.018871762 0.020150693 -0.0472126
000170 38 24 14 3d 04 96 dd 39 26 7c 1a 3d 16 7a 1d 3d
       0.036167353 0.00042264175 0.037716053 0.03844651
000180 67 eb 95 bc 98 5e b2 bc 7a 7c 33 3d f5 e9 c6 bb
       -0.018300725 -0.021773621 0.043819882 -0.0060703703
000190 a7 59 1b 3c f0 71 33 bc a7 fc 21 3d 9d 59 e7 bc
       0.009481824 -0.010952458 0.03954759 -0.028240973
0001a0 7c 28 7b 3d e5 ba 13 bd b5 9f 76 3d c5 f4 6c 3c
       0.061317906 -0.03606691 0.060210902 0.0144626545
0001b0 65 40 76 3d ad 64 c9 3b 26 40 8a 3d 3c c2 36 bd
       0.060120005 0.0061460347 0.067505166 -0.04461883
0001c0 8e 70 8c bc e5 cf 1f bd 25 9a 9a bd a8 97 6c 3c
       -0.017143514 -0.039016623 -0.07548932 0.014440455
0001d0 c5 73 30 3d 0f b6 2f 3d f7 e6 76 bd ae e5 96 bc
       0.043079156 0.042898234 -0.06027886 -0.018420067
0001e0 b9 ba 2e bd c8 5d 8b 3c 6f 4c 56 3d 09 c9 a9 3a
       -0.04265854 0.017012492 0.052318987 0.001295359
0001f0 e5 a7 9d 3c 65 00 28 3d 77 47 11 bc 2d f7 c1 bb
       0.019245097 0.041016 -0.008867136 -0.005919358
000200 32 0e ea 3c b3 bd 27 3d f8 98 a8 bc b7 92 45 3d
       0.028571222 0.040952396 -0.020580754 0.04823562
000210 74 e3 1a 3d 89 35 30 3d 2c c9 91 bd f8 68 ec bc
       0.037814572 0.043019805 -0.071184486 -0.028858647
000220 a5 00 92 3d a5 9d 20 3d a0 b6 85 bd 6b c5 eb bc
       0.07129029 0.03921284 -0.065289736 -0.02878066
000230 5d bd 7b bd af d8 07 bd f8 10 4c 3d 03 1d 12 3d
       -0.061459888 -0.03316563 0.04982087 0.0356722
000240 a8 81 19 bb c6 5c 94 3d ba 3d 03 bd 9c 80 14 bd
       -0.0023423228 0.07244258 -0.03204129 -0.036255464
000250 a1 d4 e3 bc e1 c6 ad bc 3e 61 9b 3d ef 3a a1 3d
       -0.02781135 -0.021212997 0.07586907 0.07872569
000260 c3 ce 0e 3d 0d 03 3f 3d 8e fe a1 bc 11 2e 11 bd
       0.034865152 0.04663377 -0.019774701 -0.035444323
000270 80 f2 17 bc 54 71 61 3d f0 88 80 ba 3f cc 82 bd
       -0.009274125 0.05503972 -0.0009806436 -0.06386613
